Assignment 1/Torch Model/baseline.pt (torch, 56908 bytes, 7 tensors)

weight f4 [128, 5]
00000000: dae2 7f3e cc8f 6dbe 6128 12be 329b f4be
00000010: cd03 95be 585e 87be e433 a4be 1e99 b3bd
00000020: a98c ea3d 341c f73d 6338 b73d 97ee 84be
00000030: 6dfe e03e fe5b de3e 4f86 70be a2e8 66be
00000040: d0f8 2bbd 050a e73d 6d8f 313c 3bed db3e
00000050: e98e ecbd e7e4 84be 853f 26bf e3ff f53d
00000060: 6275 f9bd 6e21 c7be ea7a 9dbe 4148 813e
00000070: 9639 a6be 58ef cabe 6389 bebe e3d5 9fbe
00000080: 7c67 413e 7137 713e a7af 05bd 7b02 0ebe
00000090: da4a 05bd f49e 653e ffdc 9d3e 1429 b13e
000000a0: e429 9ebc e010 f3be bab8 04bf 609c 9abe
000000b0: f9a5 debc a065 a73e b731 8d3e 262b d43e
000000c0: 5f38 71bd 8c52 093e eb5e 8a3e c469 fbbe
000000d0: 0354 0abf b205 403e 4f2b ecbe 135c ea3d
000000e0: ac1f 0bbf 369c 59be ac3f 893e b58a e1be
000000f0: 37c3 b4bc 3b9c 8fbd 138a 8cbe 8de2 abbe
00000100: 0d93 db3e 23df f23d fdf1 ad3e 4a69 bb3e
00000110: 09ef 1ebe 56e8 eabe 479b 20bd e410 5e3e
00000120: d29d 923e 9105 90be 1d2b a33e abeb 2fbe
00000130: f1c9 bd3e 7f76 bebd c2b0 b9be 95d6 8cbc
00000140: 5b94 20be d756 93be ecb0 d03e 8b76 f1bd
00000150: ca8d fe3e ad62 973e 0fbd 61be a9aa 15bf
00000160: 9a25 febd 15bb afbe 9a17 1bbe d2a5 ad3e
00000170: 6f9b 69be 2bb8 f33d 702c a63e 1816 2c3e
00000180: 9093 ccbe 3a11 c6be bdfa 103e 0c71 fabe
00000190: 6377 963d 0264 d53e 6996 d2be 063b be3d
000001a0: 2726 b03d 5289 373d 4d37 d0be da2f a9be
000001b0: b30e a03d 70c5 e53d eca6 91be b1e3 0ebe
000001c0: 3bd6 5fbd 591d d0bd 0d42 a23e 050c 9f3e
000001d0: 304e e6be 0f93 953e 9a78 e83d df54 bcbd
000001e0: 180b da3c 4005 14be a91d dc3e 7ecc 9c3e
000001f0: dbe3 df3e 7c15 723e c481 f0be 8dfb 9ebe
00000200: 5f09 05bf 6e9e 5fba 4e42 fd3d cbe6 673c
00000210: c876 e03e 5f99 1d3e e91b 433e 2535 963e
00000220: 8363 87be 1dea 11bf 6bdf b93e fc20 763d
00000230: 7a16 15bf 1957 8a3c 38c2 34be aa0d 973e
00000240: 615e 423e f2f6 e2be 395a b63d 3c09 3dbe
00000250: 8d2e 7bbe 2980 1bbe 6ff1 493e dfa6 c23b
00000260: ca55 903e 8999 7cbd 95c4 eb3e 0cfd b83d
00000270: 3192 ee3c 545b b8be e2e2 cebb eca6 ee3b
00000280: 5358 20bd ef36 b73e 4a11 b7be c227 12be
00000290: 83fa 903d b284 b63e db2c a03e cb94 a73e
000002a0: 7f66 b0be bac6 5fbc e493 a13e af04 27bd
000002b0: 921b ca3e 84a8 a2bc 94e3 4f3e 9c7a eb3e
000002c0: a31d bbbe 464d 863e 9eac babe 0722 ce3e
000002d0: 6748 8a3e 3c13 22be 163d 6d3e cf39 99be
000002e0: 0947 89bd bdaf bfbd da4c 81be b05e d8be
000002f0: 5de1 753e 4b6c fabe 5e2c 8d3d f96e 50be
00000300: af4e 6d3d 8741 453e cb45 e9bd 772b f7bd
00000310: 0484 de3e 8a56 04bf 45b8 cdbd 9924 4fbd
00000320: 2900 22be b482 ab3e 372f ec3e b955 983e
00000330: 0a34 33bc a2a1 243d 1a63 ec3e cd12 c93e
00000340: 5605 8ebc 8782 25be 8c08 e03e f162 e4be
00000350: 10b8 3dbe 3009 913d 9f35 b8be 178a c2be
00000360: c90f d53e 63c6 cd3d 4763 b13e 394d 51bd
00000370: 1b0c 1d3e e644 5dbe cb5c 063f ec25 853e
00000380: 71cc 7b3e 3727 0c3d 5e26 9f3e cdb8 4f3e
00000390: 8c4d ae3d c8ce 8c3e 28e3 f7be 7785 0a3d
000003a0: f689 40be 14ff 59be c4c0 343d da3f adbe
000003b0: 73ed 42be 0d24 96bc 6d40 b0be 8327 dabe
000003c0: 44c5 a63e 49ad 78be 7aec 7e3e 2105 09be
000003d0: 6a38 f93e 8dc8 8dbe 8177 8abe dec2 bebe
000003e0: 65ff ca3d b2d4 eabc b3e1 fe3d 5ae1 b2bc
000003f0: e476 ebbd b718 d1be 63b0 e83e cda6 aabe
0.24988881 -0.23199385 -0.14273216 -0.47774655 -0.29104462 -0.26439166 -0.3207084 -0.08769439
0.1145261 0.12065926 0.08946302 -0.2596328 0.4394411 0.4342956 -0.23488735 -0.2254968
-0.041985333 0.11281208 0.010837418 0.4295443 -0.115506954 -0.2595589 -0.64940673 0.12011697
-0.12180592 -0.38892692 -0.30757838 0.25250438 -0.3246581 -0.3963573 -0.37214193 -0.3121787
0.18887132 0.23556305 -0.03263822 -0.13868134 -0.032542087 0.22423917 0.3083267 0.34601653
-0.019307084 -0.47473812 -0.5184437 -0.3019743 -0.027178751 0.3269472 0.27576992 0.4143917
-0.05889165 0.13410395 0.27025542 -0.4910413 -0.5403444 0.18752173 -0.46126792 0.11443343
-0.543452 -0.21250996 0.2680639 -0.44051138 -0.022065742 -0.070122205 -0.27449092 -0.33571282
0.42885628 0.11858966 0.33973685 0.36603767 -0.15520872 -0.45880383 -0.039210584 0.21686131
0.28636032 -0.28129247 0.3186883 -0.17179744 0.37068132 -0.09299945 -0.36267668 -0.017192164
-0.15681593 -0.2877719 0.4075998 -0.117901884 0.4971755 0.2956747 -0.22044776 -0.5846353
-0.12409516 -0.3432242 -0.15145722 0.33915573 -0.228132 0.119003616 0.32455778 0.16805303
-0.3995633 -0.38685018 0.14158149 -0.48914373 0.0734699 0.41677862 -0.4113038 0.092886016
0.08601027 0.044808693 -0.4066719 -0.3304432 0.07815304 0.11219299 -0.28447664 -0.13954045
-0.054647665 -0.101618476 0.31691018 0.31063858 -0.44981527 0.2921376 0.11351128 -0.091958754
0.026616618 -0.14455128 0.4299138 0.30624765 0.43728527 0.23641008 -0.46974003 -0.31051293
-0.51967424 -0.0008530383 0.12366162 0.014154146 0.43840623 0.15390538 0.19053616 0.2933742
-0.2644311 -0.56997854 0.36303267 0.06009005 -0.5823742 0.016887235 -0.17652214 0.29502612
0.18981315 -0.4432903 0.08903927 -0.18460554 -0.24529476 -0.15185608 0.19721006 0.0059403027
0.28190452 -0.06166986 0.46048418 0.0903264 0.029122444 -0.36007178 -0.0063136676 0.007283082
-0.039146733 0.35784099 -0.35755378 -0.14272979 0.07079031 0.35648113 0.31284222 0.32730708
-0.34453198 -0.01365822 0.31558144 -0.04077595 0.3947416 -0.019855745 0.20301658 0.4599198
-0.3654605 0.2623083 -0.3645982 0.40260336 0.27008364 -0.1582765 0.23167834 -0.29926917
-0.06703002 -0.09359691 -0.25253946 -0.4225974 0.2401175 -0.48910746 0.06893228 -0.20354833
0.057936367 0.19263278 -0.11390265 -0.12068837 0.43460095 -0.5169455 -0.10044912 -0.05057201
-0.15820374 0.33498156 0.46129772 0.297529 -0.0109377 0.040193208 0.46169358 0.39272156
-0.017336529 -0.16163073 0.4375652 -0.44606736 -0.18527246 0.070818305 -0.3597841 -0.3799598
0.41613606 0.10047605 0.34646055 -0.051099036 0.15336649 -0.21608314 0.5248534 0.26005495
0.24589707 0.034217086 0.3108396 0.2028534 0.08510885 0.27501512 -0.48415494 0.03381869
-0.18802628 -0.21288711 0.044129148 -0.33837777 -0.19035892 -0.018327737 -0.34424153 -0.4260827
0.32572377 -0.24284853 0.24894896 -0.13380863 0.48675853 -0.2769207 -0.270443 -0.37258047
0.09911994 -0.028665874 0.124453925 -0.021835972 -0.11497286 -0.40839168 0.45447072 -0.33330384

bias f4 [128]
00000000: 6396 6f3e 2bb9 72be c2dc 6c3d fd3d ca3e
00000010: 0d1a 3d3e 6993 e13e 7057 31be 0f4b 8f3c
00000020: 8b78 453e 6dcf 2abe f02a 21bb 8715 693e
00000030: ff38 743e f2dc b33e 076d 073f 948c 65be
00000040: b5ca 833e 5a07 4cbe 1cb5 6e3e 01c2 523d
00000050: 718f d83e 1172 6ebd f9db 013f 8c97 d2be
00000060: 39b1 c03e 06ce 86bd f97b c4be fe0a 5d3e
00000070: bb8c c4be 7b3c b0be 9c1d d2bc e4c2 b5be
00000080: 78d1 81be 7190 bebc 8751 a9be 0311 793e
00000090: 02e2 003f bad9 02bf d139 bcbe 553e 863d
000000a0: 185b d93e d412 07be 176f 97bb b07d 6cbe
000000b0: e93b 47be bfe4 d3be 2f15 323e 4c2d 4cbe
000000c0: 985f 48be 5e57 553e 3a73 86be 1685 c5be
000000d0: 91c7 043f e3f6 99be 86fc 963e 63b4 0ebe
000000e0: 08f3 a9bd b2f6 b63d a573 64be 15f1 2dbe
000000f0: b3b7 a0be c45b 7dbe 535c c1be fb42 93be
00000100: 8947 d13e e56d 383e d47e f93e 704a d13e
00000110: 7b36 8c3d efc8 88be bedf db3e 44e2 0cbe
00000120: 4151 dc3e fc7e 44bc 09a5 00bf 8d78 55be
00000130: 1617 e1be bf07 523e ff49 00be b4ac bfbe
00000140: 2ff3 c93e 2b28 74be 98e7 6f3e 58d4 f33e
00000150: 46ad fd3d a739 f6bd 1bb7 193e b17e d4be
00000160: 8bb6 9abe 16fa 00be 4f45 03bf 5b5e 6bbe
00000170: 89ec 0e3c f8a3 343e 3a1e 9ebe c55d 443e
00000180: 5d9f 8ebe a6bd cfbd c717 d43e 595e eabd
00000190: 2977 eebe 011c 453e 12b7 d6be 6435 42be
000001a0: 2510 e53e b5ba 2abe 26f5 c9bd 081e 353e
000001b0: 0dc8 c53e 5b0d 38be 5feb 9f3e 1e87 d6be
000001c0: b2e8 63be e8c8 553e c9d4 f53e cc84 b23e
000001d0: 02d9 d63e 8cff 82be 9d48 22be cb53 bfbc
000001e0: 69fd c0bd c8e7 edbd b1fe 1bbe fb8f a3be
000001f0: d5ff 3b3e db8a 303e 9694 28be ea99 2cbd
0.23397212 -0.23703448 0.05782772 0.39500418 0.18466969 0.44057778 -0.17318511 0.017491845
0.19284265 -0.16680689 -0.0024592243 0.22762118 0.23849867 0.35129505 0.5290074 -0.22416908
0.2574059 -0.1992468 0.23311275 0.051454548 0.42296937 -0.05821425 0.50726277 -0.41131246
0.3763521 -0.065822646 -0.38375834 0.21586224 -0.3838862 -0.34421143 -0.025648884 -0.35500252
-0.25355124 -0.023262234 -0.33070013 0.24322896 0.5034486 -0.51113474 -0.3676286 0.06554858
0.42452312 -0.13190776 -0.0046213972 -0.23094821 -0.19456448 -0.41385457 0.17390893 -0.19939154
-0.19567716 0.20834109 -0.26259786 -0.385781 0.51867014 -0.30071172 0.29489535 -0.13936
-0.08298308 0.08933772 -0.2230974 -0.16986497 -0.3139015 -0.24742037 -0.3776575 -0.2876204
0.4087489 0.18010671 0.48729575 0.40877104 0.06846329 -0.267158 0.4294414 -0.13758188
0.43030742 -0.011993166 -0.50251824 -0.20846768 -0.43962926 0.20510767 -0.12528227 -0.3743645
0.39443347 -0.23843448 0.2342819 0.47622943 0.12386565 -0.12022715 0.15011255 -0.41502908
-0.30217394 -0.125954 -0.5127763 -0.22985213 0.008723387 0.17640674 -0.30882436 0.19176395
-0.2785596 -0.101435944 0.4142439 -0.11443777 -0.46575287 0.19248964 -0.41936547 -0.1896568
0.4473888 -0.16672786 -0.098612115 0.17687237 0.3862919 -0.17973845 0.3123426 -0.4189996
-0.22256735 0.20877421 0.48013905 0.3486694 0.4196244 -0.25585592 -0.15848012 -0.023355385
-0.09423334 -0.116164744 -0.15233876 -0.31945786 0.18359311 0.17240469 -0.16462931 -0.04213897

weight f4 [64, 128]
00000000: eb24 cfbd 010a dd3e 606d 1d3d 9528 2fbe
00000010: 1d26 8b3d 82dc da3b b6e7 2ebd 492c 2abb
00000020: 1436 68be a063 7ebd a663 bfbb 9d27 d5bc
00000030: 0106 50be 5ef7 13bd 2066 1c3d 5293 11bd
00000040: de82 103e 786c a83d 450c 9fbd 7f95 c53d
00000050: d0c8 b23c bfd5 2a3e 303c e13d 39ce a13e
00000060: 0e5a 6d3c d3a5 f3bd fb00 7c3d 6858 1c3d
00000070: 75d0 453d 1a9a 3c3d 8b6c f9bb 6793 8d3e
00000080: 0a23 463e b230 dcbc e1a5 5dbd edd6 bfbd
00000090: 8412 c9bc 3142 c43b b0ba de3c 6767 e83d
000000a0: ddc4 813d c78c 713c b9ce eb3c a8a3 be3c
000000b0: 0a35 8ebc 927f 38bd 5388 9b3c 92a7 f63c
000000c0: b55d efbd 56c2 87be c744 d2bc 75cf 723d
000000d0: 3fbf a4bd 1835 363d 2575 34bd fb24 0cbd
000000e0: e220 683c d060 983d 0488 30be 93a4 203e
000000f0: debe 89bd 8a77 953c 1726 cabc f5cc 213e
00000100: c543 8d3d bbd6 d63d 5d9d 0dbe 0083 08bd
00000110: 4b42 193d e067 7c3b 4517 233e f30e 7dbd
00000120: 1e47 703d a792 9ebc 2be2 c0bc 6329 98bd
00000130: 136d adbd e921 14bc ef27 273b a8ef 95bc
00000140: c6cf a0bc 8e3c 13be 015e 4abd b361 fc3d
00000150: ed1d 96bc 5718 5f3d 98aa 69bd cf63 6cbd
00000160: 61f5 10bd f7a1 88bc 3f8f 87bd 12d1 e6bd
00000170: 0e88 8d3c 8272 2d3e dc1f 203d 9a40 5b3e
00000180: 96cf a33d a7d6 b73d 187d 323c 4ec2 50bc
00000190: 4636 003e 9727 a13d 0bb9 e73c 622f c9bd
000001a0: e82b 37bd 315d 13be f44d cb3d 768f abbd
000001b0: 1805 64bd 7fa7 7f3d a48c 163e 1d88 f63c
000001c0: 2458 ccbd 2d23 6e3d 38bf 913c b4d6 d53d
000001d0: 9a8f cb3c c6d9 c33d 4d05 5bbd 12d0 c73d
000001e0: 34fb e8bc ff48 af3b 4078 d33b b7f4 fbbd
000001f0: d385 313b aa2b a33d 9731 2e3d bf78 96bd
00000200: 8cbd 203b 53e8 74bd 3f93 6f3d 77da acbc
00000210: bf62 7bbc 3274 3cbd 7121 7039 ddea 1d3d
00000220: 52d5 ab3d fa1f bdbd 82e0 3c3c 6396 a13d
00000230: efb2 543d 5e78 413d 2b57 92bd fed9 9d3d
00000240: 9863 543d d9f4 92bd 0c48 c0bd d06d 383c
00000250: 7c11 81bd 3aee 66bd 8a3f 883d 9d24 42bd
00000260: 709e 15bc 54d6 66b9 7e7a aabd 3d08 813d
00000270: 9490 9ebc 3171 b4bd 6e96 b1bd e7d8 183c
00000280: 2c6f 2cbc ddce 65bd 42d2 adbd 6faf 1b3d
00000290: 6a70 8a3c af00 fb3c b49d 773b 5cb8 85bc
000002a0: 86a6 e0bc 09e9 6f3d 7957 843d 3f47 82bc
000002b0: 726f 273d 732c c33c 805f 823d e851 abbd
000002c0: 0828 89bd ff6f ae3b 433b a9bd 7f6d 91bd
000002d0: 855d e23c 9d37 0e3b c309 e2bc 461c b5bc
000002e0: 8c52 77bd c523 81bd fc19 db3c d33b 02bd
000002f0: d36b 8ebd 52ed 87bc 4c17 aebc e8c3 493d
00000300: 4c26 9cbd af76 35bd 84b9 2fbd ea83 25bc
00000310: 68ee 39bc 1dff ab3c a444 98bd e76e 193d
00000320: cfdb 1a3d 3a4a 5039 d727 c3bd e04b a53d
00000330: e95d 473d 7385 203d 9d01 2fbd a8d2 c93c
00000340: e972 0ebd fa7b faba 31f8 eb3c dd6f d53c
00000350: e73f 643d 4a62 b5b9 e12c 0cbd 4501 24bd
00000360: 01e8 073c a690 743a 9f00 85bc 021e 503d
00000370: 2733 533a 60e7 e8bc 1efc 383d 9c96 10bd
00000380: fca9 91b6 bd72 373d a5eb 37bd 858c 9a3b
00000390: dc0e 6dbd 34b7 3c3d fef9 4d3d cc66 23bc
000003a0: e339 953b d440 933d ab0d 4dbd 1051 90bd
000003b0: 126b a5bd d238 683d c559 88bd a9b2 943c
000003c0: 8765 023d 2139 9a3d 3d35 7abd b650 96bd
000003d0: e906 46bd 6194 39bd ca1b 853d f5aa 5fbd
000003e0: 6303 34bc 8940 f2bb 33a9 a4bd 44c7 a23d
000003f0: 19f4 773d 8879 703d 4efd b0bb 4f5d 7f3c
-0.101144634 0.43171695 0.038434386 -0.17105325 0.06794379 0.0066791186 -0.042701446 -0.0025966337
-0.22676879 -0.06210673 -0.0058407364 -0.026019866 -0.2031479 -0.03612458 0.03818333 -0.035540886
0.14112422 0.08223814 -0.07766012 0.09647655 0.02182427 0.166831 0.10997808 0.31602648
0.014486803 -0.11896863 0.061524373 0.03817025 0.048294503 0.0460454 -0.0076118163 0.27651522
0.19349304 -0.026878688 -0.054113273 -0.09367166 -0.024544962 0.005989336 0.027188629 0.113478474
0.06336377 0.014743037 0.028785096 0.023271397 -0.017359275 -0.045043536 0.018985903 0.0301092
-0.11687795 -0.26515454 -0.025667561 0.059279878 -0.0804429 0.044484228 -0.04405703 -0.034214955
0.014167996 0.074403405 -0.17239386 0.1568778 -0.06725858 0.018245477 -0.024676366 0.15800841
0.06897692 0.10490175 -0.1382956 -0.033328056 0.037416738 0.0038514063 0.15926845 -0.061781835
0.058661573 -0.019357039 -0.023545345 -0.07429769 -0.0846807 -0.009041288 0.002550598 -0.018302754
-0.019630324 -0.14378569 -0.049406055 0.12323322 -0.018324817 0.05446657 -0.057047457 -0.057712372
-0.03539026 -0.016678793 -0.06619119 -0.11270346 0.01727679 0.16938213 0.039092883 0.21411362
0.07998578 0.089764886 0.0108940825 -0.012741638 0.12520704 0.07868879 0.028286478 -0.09823491
-0.044719607 -0.14391018 0.09926978 -0.083769724 -0.05566892 0.062415596 0.14702088 0.0300942
-0.09977749 0.058139015 0.017791376 0.10441342 0.024848748 0.09563021 -0.053471852 0.09756483
-0.028440095 0.005349278 0.006453544 -0.12302535 0.0027087822 0.07967313 0.04252776 -0.07347249
0.0024527041 -0.059791874 0.058490034 -0.021100266 -0.015343367 -0.04600925 0.00022900641 0.03855406
0.08390297 -0.09234615 0.011528136 0.07890012 0.051928457 0.04723393 -0.07145532 0.07707594
0.051852793 -0.07175607 -0.09388742 0.01125665 -0.06302163 -0.056379534 0.06652744 -0.0473982
-0.009132013 -0.00022014353 -0.08324145 0.063003995 -0.01935605 -0.08810652 -0.0867127 0.009329057
-0.010524552 -0.056105483 -0.08487369 0.038009103 0.016899306 0.030639974 0.0037783207 -0.016323261
-0.027423155 0.05857185 0.064619966 -0.015903113 0.040877767 0.023824906 0.063658714 -0.08365232
-0.066970885 0.0053234096 -0.082632564 -0.07100963 0.027632484 0.0021700629 -0.027592545 -0.022108208
-0.060381457 -0.063056506 0.026745789 -0.031795334 -0.069541596 -0.016592655 -0.021251343 0.049259096
-0.07624492 -0.04430264 -0.04290153 -0.010102252 -0.011348344 0.02099567 -0.07434967 0.03745928
0.037807282 0.00019864077 -0.09529083 0.08071113 0.048673544 0.039189767 -0.042726148 0.024636582
-0.034777556 -0.0019110434 0.02880487 0.026054317 0.055725005 -0.0003459624 -0.034222487 -0.040040273
0.00829506 0.00093294156 -0.016235648 0.050809868 0.00080566335 -0.02843064 0.045162313 -0.035299882
-4.3411255e-06 0.044787157 -0.044902463 0.0047164583 -0.0578755 0.046073154 0.05028724 -0.009973239
0.00455402 0.07190099 -0.050061863 -0.070467114 -0.08077063 0.056694813 -0.06657747 0.018151598
0.031835105 0.07530428 -0.06108593 -0.07339613 -0.048346434 -0.04530752 0.06499441 -0.054606397
-0.010987136 -0.007392947 -0.08040085 0.07948163 0.060535524 0.05870965 -0.00540129 0.015586211

bias f4 [64]
00000000: ef14 49bd 841c 33bd 4985 dfbd 55f7 8a3d
00000010: c797 9c3c 648a cc3d 4cde eebd db15 96bd
00000020: dff1 cf3c cce9 8f3d 3b47 97bc acbd 88bd
00000030: 2865 603d 8c28 4abd ce8b 193d ca38 38bd
00000040: 2914 a6bd 0447 6bbd ce36 8c3d c203 0e3e
00000050: 954f 85bc 0053 bab6 7625 a93d 7326 983d
00000060: 3a4c ce3c 642c 843c e7d8 76bd 5bf6 203d
00000070: 444e 3bbe 4ab0 16bd 3f79 353d 0a97 a4bd
00000080: 5b2a 39bd 7b66 ccbd c533 c2bc 4045 c23b
00000090: 1fde 8bbb 2b47 7f3d c21d 413d e07e 643d
000000a0: f1a0 6ebd 438c 903c f928 443d ee44 61bc
000000b0: 63f5 71bd 6cb8 d5bc 94f1 61bd 4d3c e5bc
000000c0: 8c15 3a3c f045 84bd 0c4d 2abd 60ec 98bd
000000d0: 8c10 c9bd 569c 5dbd 8cb4 5dbc c291 963c
000000e0: 5caa b93d a7d8 5cbd d4b2 1b3e 11b2 a6bc
000000f0: 865f 583d 616c 223d 143c ba3d 5e70 90bd
-0.04909223 -0.043728366 -0.10914094 0.06785456 0.019115342 0.099873334 -0.116634935 -0.07328387
0.025383888 0.07027015 -0.018466583 -0.06676802 0.05478397 -0.049355075 0.037486844 -0.044976033
-0.08109314 -0.057440773 0.06846391 0.13868621 -0.0162733 -5.5528944e-06 0.08259098 0.074292086
0.025182832 0.016134448 -0.060265448 0.039297443 -0.18291575 -0.036789216 0.044305082 -0.08036621
-0.04520641 -0.09980484 -0.023706326 0.0059286654 -0.0042684223 0.06232373 0.04714752 0.05578506
-0.058258954 0.017645007 0.047890637 -0.013749344 -0.05907191 -0.026088916 -0.055162027 -0.027982855
0.011357676 -0.06458652 -0.041577384 -0.0746696 -0.09817609 -0.05410417 -0.013531815 0.01838005
0.090656966 -0.053917553 0.15204936 -0.02034858 0.052825473 0.03965414 0.0909349 -0.07052682

weight f4 [32, 64]
00000000: a990 22be 2b8a dfbd dd97 343e ee92 893c
00000010: 8672 c2bd 1e32 3d3e 8704 053e c31c fd3b
00000020: 9e37 ba3d c619 0ebd 09ab b63d 6890 403e
00000030: 1184 afbc 1a9d c2bd 99f8 b7bd c63e 0a3c
00000040: 40f2 b83d 451f 953d 294d 2b3c 01bc 413e
00000050: c8e3 c8bc 8d0c 423e e0cb 89be 7886 38bd
00000060: fd8c b9bc 0a9e ef3d 43f4 b43d 72ba 40bd
00000070: a902 c13d b46f 37bd a2bc 0abd 8b71 3d3c
00000080: 59b1 253e 7f99 883d b7e5 68bc e6f7 143d
00000090: 07c7 f7bc b9f3 583e dcdf 96bc 7b05 87bd
000000a0: 80cb 3cbd 8e05 a03d 3a41 a13c 234f 1bbc
000000b0: 1358 0d3e aa5e 883d edab 14be 23db 7bbd
000000c0: e48a 633d d0a3 56be fff5 e03d dea3 3c3c
000000d0: a5d2 70bd 446f 673d 9c95 043e f5d5 963d
000000e0: 5c3a 2d3e f0b3 753e df29 fa3d b9eb 8d3d
000000f0: 7ea5 273b 959c 973d 8177 3d3e d0cf 51bd
00000100: c9f4 c33c 9383 2c3d 185e 953c d53e 54bd
00000110: f2cf 043e a611 b2bd e60c a9bd 376a 0e3e
00000120: f311 b73b 4f10 753d 1583 4fbe f2e9 14be
00000130: 0ac7 54ba db3a 87bb dc4e 623e a27b 06be
00000140: b911 adbd 1e69 70be 51c0 eabc 2519 39be
00000150: 5ae6 b7bd 882d 0abe d6d1 ac3e 848c ca3d
00000160: 1a99 8a3d da4d ff3b 23e9 3ebd 58a1 ac3c
00000170: 2308 82be fee8 963d cda3 6ab8 8d17 a03d
00000180: ecca 7ebe aad4 d5bd 7671 f6bc 80d0 09bd
00000190: 550e 65bd a18c 8bbd 0309 d83d 864c 373e
000001a0: 04d3 cc3d efb7 64bc cf0e 4ebd a617 6ebe
000001b0: 7494 64be c440 8dbd aa86 183e 4cd2 383d
000001c0: abc0 c73d 876c 3e3e a56d 6ebe 2eb3 9b3d
000001d0: cd8d 11bd 9890 3c3d 342f d7bd e10b ac3d
000001e0: d017 0cbe 9d77 afbe 5051 50be ab60 903d
000001f0: 6c57 213e d0ed f33d a00d 60be 7373 273e
00000200: 33b2 91ba 92a1 8f3d a33f 073d 92c5 11bb
00000210: 07cc a8bd b57b f63c e883 2dbe 8f6d 26bd
00000220: 1568 84bc caf1 e8bd 1727 d43c ea11 1dbe
00000230: 6445 b83d 795f 0a3e 3265 013d 68ae 24bd
00000240: b6a1 9b3d 71b0 3ebe 6e7a d4bc f144 3a3d
00000250: c80f 03bd 7d95 35bd 6ea8 5d3e 4a89 2a3d
00000260: f439 d33d f765 a23d c0b0 9ebd 48fc e53d
00000270: a768 17be 6071 b83c d6a6 773d 3d5e 953d
00000280: d073 6bbd dcd4 1fbe 766b 943c 4da2 8e3d
00000290: 807d 07be ceb6 02be 6dc9 f73d b551 d63d
000002a0: 8c99 703d 8ec7 bdbd 7116 153d d0b2 18be
000002b0: 91b3 f5bd ba8b 953d bc1b c03d 7a23 aebc
000002c0: ecd9 a13d 2a58 303e 0228 643d c994 5e3c
000002d0: cd5e 1b3d 9290 ddbd a1af 40be 419f 713d
000002e0: e5f4 d9bd 66fc 4cbe 1158 3bbe 74c3 aebd
000002f0: 27fa e63d e523 acbd 739f 56be e46f 193e
00000300: 1a95 a4bc 34e8 4fbd 91ef ad3d 8309 22be
00000310: 2d6d fdbd 0c9f 4c3e 5cd3 fe3d 0820 14be
00000320: 5a5d c53d 4610 1cbd a0ac 0d3e 77fd 203d
00000330: 4300 1b3d edb4 07bd dc76 9aba 67db a8bc
00000340: d431 823d b403 033e 57b0 e2bc 2fdc 0c3d
00000350: 08d7 7e3d 671e 8e3d 4e43 1bbe 666f 17be
00000360: 8175 2c3e 7a8f 22bd 3c79 59bd 1337 3ebb
00000370: 1900 7f3e 2894 813c 0fde be3d f1fe e8bd
00000380: 86e0 173e e197 0a3e 826e 0dbe ab6d e5bd
00000390: aa8b c43d 2002 393e 95ca 9a3d 1a72 d73c
000003a0: 688f efbc 6b4c e9bd 8e57 98bd 789d 703e
000003b0: 6967 703e e956 b03c 9fc0 3cbc d45b e13d
000003c0: 53f6 893d c58b fcbc dfe1 673d eb10 cf3d
000003d0: a900 1a3d e028 813d a691 243e 4ab6 b13c
000003e0: c5a3 4c3e c3ec 843e 16d0 2f3e 7e9c fcbd
000003f0: e7b6 6ebd caa5 cfbd 5d97 763e 9e1e 6abe
-0.15875496 -0.10915025 0.17636056 0.016793694 -0.094945 0.1847615 0.12990008 0.007724376
0.090926394 -0.03469255 0.08919341 0.18805087 -0.021425279 -0.09502621 -0.08982963 0.008437818
0.090305805 0.07281355 0.010455408 0.18919374 -0.024522677 0.189501 -0.26913357 -0.045050114
-0.022650236 0.117000654 0.08835652 -0.047052808 0.094243355 -0.044784263 -0.0338713 0.011562715
0.16180934 0.06669902 -0.014214925 0.036369227 -0.03024627 0.21186723 -0.018417291 -0.06592842
-0.04609251 0.078135595 0.019684423 -0.009479317 0.13803129 0.06658681 -0.1451871 -0.061488282
0.05555238 -0.20960927 0.1098442 0.011513678 -0.058794636 0.056502596 0.12947696 0.07365028
0.16916794 0.23994422 0.122150175 0.06929726 0.0025580819 0.074029125 0.18502618 -0.051223576
0.023920434 0.042117666 0.018233344 -0.051817734 0.1296995 -0.086947724 -0.08254413 0.13907705
0.0055868565 0.059830006 -0.20264848 -0.14542368 -0.00081168173 -0.004126889 0.22100395 -0.131331
-0.08450646 -0.23477599 -0.028656157 -0.18075998 -0.08979483 -0.13493931 0.33753842 0.098900825
0.06767483 0.007791263 -0.046609055 0.021073028 -0.25396833 0.073686585 -5.59425e-05 0.07816992
-0.24882096 -0.10440953 -0.0300834 -0.033646107 -0.05592187 -0.06813932 0.10548594 0.17900285
0.100011855 -0.013959869 -0.05030709 -0.23251209 -0.22322255 -0.06897119 0.1489512 0.04512243
0.097535454 0.18596087 -0.23284014 0.07602535 -0.035535622 0.046036333 -0.1050705 0.08400703
-0.13680959 -0.34270945 -0.20343518 0.07049688 0.15756005 0.119105935 -0.21880198 0.16352634
-0.001111573 0.07013239 0.033019673 -0.0022243005 -0.0824204 0.030088285 -0.1694485 -0.040631827
-0.016162911 -0.113742426 0.025897546 -0.15338865 0.0899761 0.13512982 0.031590648 -0.04020539
0.07599203 -0.18621995 -0.025937285 0.045475904 -0.031997472 -0.044332016 0.21646282 0.041634835
0.10313788 0.079296045 -0.07748556 0.112297595 -0.14786015 0.022514999 0.06046184 0.07293365
-0.057483494 -0.15608543 0.018117648 0.0696455 -0.13231468 -0.12765047 0.12098966 0.10464803
0.058740184 -0.09266578 0.036398355 -0.14911962 -0.1199714 0.07302041 0.0938029 -0.02125715
0.079028934 0.17221132 0.055702217 0.013585278 0.037932206 -0.1081859 -0.18816997 0.058989767
-0.10642413 -0.20018157 -0.18295313 -0.085333735 0.112781815 -0.08405284 -0.20959263 0.14984089
-0.020090628 -0.050758556 0.08492959 -0.15823941 -0.12374339 0.19982547 0.12442657 -0.14465344
0.09636946 -0.038101457 0.13835382 0.039304223 0.037842046 -0.03313153 -0.001178469 -0.020612432
0.0635716 0.12794381 -0.027671976 0.03438967 0.06221679 0.069393925 -0.15162393 -0.14788589
0.16841699 -0.03968761 -0.053094134 -0.0029024526 0.24902381 0.015817717 0.09319698 -0.11376751
0.14831743 0.135345 -0.13811687 -0.11202558 0.09596951 0.18067217 0.07558171 0.026299525
-0.029243186 -0.11391529 -0.07438575 0.2349757 0.23476948 0.021525817 -0.011520534 0.11003843
0.06736436 -0.030828366 0.05661189 0.10110649 0.037598286 0.063066244 0.16071185 0.021693368
0.19984348 0.25961885 0.17169222 -0.12334536 -0.058279898 -0.10139044 0.24081178 -0.22863242

bias f4 [32]
00000000: f776 d2bd 1947 893d f738 f63c 48dd 9f3d
00000010: 9914 50bd fa47 a33d 8cc9 573d 7add aabc
00000020: d283 203e a49e 1cbd b8fb 1cbd fc7a cabd
00000030: 9b26 ad3d 43c3 e9bd ae8b 51bd 8025 3dbc
00000040: 52c7 d0bd 2bb1 073e 0e2d 6bbc 8bbd 08be
00000050: e68e 0cbb 4417 aebd 7fe2 ccbd f7f8 d83d
00000060: 483a 7e3c 77cb 1fbe 595b 42bd 4e6f e83d
00000070: 5c33 abbd ef3a 2cbd dd0d 8abd c3f9 b43d
-0.10276597 0.06703014 0.03005646 0.07805878 -0.050800893 0.07972713 0.052682444 -0.020857561
0.15675285 -0.03823723 -0.038325995 -0.09886739 0.08454629 -0.11414196 -0.0511586 -0.011544585
-0.10194267 0.13251178 -0.014354004 -0.13353555 -0.0021447479 -0.08500531 -0.10004138 0.10594361
0.015516825 -0.1560496 -0.047450397 0.11349355 -0.083594054 -0.04204839 -0.067409255 0.08836701

weight f4 [1, 32]
00000000: 7225 33be 182e 063e 2a7b 7c3e 062e f1bd
00000010: 6131 65bd 4272 7fbe f09e 893e bd2d bb3d
00000020: 5747 cdbd 558c 873e 03b3 7e3e 9990 9f3d
00000030: c0f0 cabd 7b71 503e 3c29 89be 1f01 7b3e
00000040: 24f3 663e be1f 973d cba8 60be 18c2 0c3e
00000050: 64b5 5a3e f83c 123e c243 293e eb74 15be
00000060: af23 f8bd e412 f8bd 408a 9d3d 3113 33be
00000070: ba02 693e 40c5 9bbd c293 973e 6742 c53d
-0.17494753 0.13103521 0.24656358 -0.117763564 -0.055955295 -0.2494593 0.26879072 0.09139583
-0.100233726 0.26474252 0.24872975 0.07791252 -0.09909201 0.2035579 -0.26789272 0.24512146
0.22553688 0.07379101 -0.2193939 0.13745916 0.21358258 0.1428107 0.16529754 -0.14595382
-0.12116181 -0.12112978 0.07692385 -0.1748779 0.22754946 -0.07605982 0.29604918 0.09631806
